cnn_runtime/prediction_pgp/config/model/pgp.onnx (onnx, 981759 bytes, 82 tensors)

encoder.target_agent_emb.bias f4 [16]
00000000: 1785 7dbe 71c1 55bd f6d3 92bd 5bf7 793e
00000010: 0173 333d f669 a4be 759a a73e 0a06 263e
00000020: 4886 143e 67b1 d73e d000 43be c1b3 813e
00000030: 853b 7bbe f72a 953d fa48 b2be ad30 9b3e
-0.24757801 -0.052186433 -0.071693346 0.24410765 0.04381085 -0.32112092 0.3273503 0.16213241
0.14504349 0.42127535 -0.19043279 0.25332454 -0.24534424 0.072835855 -0.34821302 0.30310574

encoder.node_emb.bias f4 [16]
00000000: 1367 b6bb 3b62 733e 859e 9d3e 2bbc 0e3f
00000010: c052 9abc d2c3 58be f3ee b73e 1b72 0abd
00000020: ffe5 893e 73d4 103d 0e52 563d 2933 91be
00000030: 31f7 763e d665 f5bd ef2b ad3d 78e4 07bf
-0.0055664866 0.2376794 0.30785003 0.5575587 -0.018838286 -0.2116845 0.3592449 -0.033800226
0.26933286 0.035358857 0.052324347 -0.28359345 0.24117734 -0.11982314 0.08455645 -0.5308299

encoder.nbr_emb.bias f4 [16]
00000000: c509 263c 9592 67be 6a2d 51bb 50ad a43e
00000010: 79e6 a8be 21ae b6bd d7c8 fcbd 0049 afbd
00000020: 0885 583d a056 023c e3e7 de3c 257f adbe
00000030: d150 25be 3de2 4ebe 89f3 443e 05c5 e6be
0.010134165 -0.2261451 -0.0031917938 0.32163477 -0.32988337 -0.08919931 -0.12342995 -0.085588455
0.052861243 0.007955223 0.027210182 -0.33886066 -0.1614411 -0.2020349 0.19233526 -0.4507219

encoder.query_emb.bias f4 [32]
00000000: fa78 923d ad82 cbbd 3721 f4bd 1410 9dbd
00000010: a877 e2bd f7ac 3abe 6ed9 7cbd 9be2 db3d
00000020: 28e3 5dbd b0b0 e63d eb1f 0fbe a3a3 a7bb
00000030: 9e28 a2bd 33b4 1f3e 96d3 483e d1cf 1439
00000040: 5a54 073e c3ec 88bd bb98 2dbd 6608 5cbd
00000050: 2690 f73c 2afa c33d d5a6 3a3d 464c 883b
00000060: f1d1 67bc 3a57 e03b 4a9b c83c 2e69 b23d
00000070: 2c95 d13d 2614 003d 848b 5b3d ff77 4a3d
0.07151981 -0.09937034 -0.11920398 -0.07669082 -0.11057979 -0.18230043 -0.061730795 0.10736581
-0.05417171 0.11264169 -0.1397702 -0.0051159426 -0.07917903 0.15596084 0.19611964 0.00014191798
0.13215771 -0.06685784 -0.042381983 -0.053718947 0.030220103 0.095691994 0.04556926 0.004159483
-0.014149175 0.0068463357 0.02448811 0.08711468 0.102335304 0.031269215 0.05359985 0.049430843

encoder.key_emb.bias f4 [32]
00000000: ca1e ab3d f747 82bd f6e6 e43d 8da9 fdbc
00000010: 50d7 0ebd 3d8c 983d 3417 9b3d 8ca6 04be
00000020: 1989 a1bd e81c e4bd a723 4dbc 2cc7 e1bd
00000030: b0e1 c93b 68b6 743b 4475 5dbd 79f5 94bd
00000040: 115d fdbd 6ac8 563d 9776 edbc 767a a1bc
00000050: 8a84 e0bd f29a 093d 8046 fcbd d01d 7abd
00000060: dc62 003e 7158 d93c 2ab7 dfbd 1c36 80bd
00000070: f393 aa3c aea0 7a3d ab63 edbd cb57 163d
0.08355482 -0.063613825 0.11176865 -0.030964637 -0.034873307 0.07448623 0.07572785 -0.12954158
-0.078874774 -0.11138326 -0.012520707 -0.11024317 0.0061609372 0.0037340168 -0.05406691 -0.07273383
-0.12371267 0.052437223 -0.028987212 -0.019711714 -0.1096278 0.033595033 -0.12318134 -0.061063588
0.12537712 0.02653143 -0.10923608 -0.062603205 0.0208225 0.061188392 -0.11591276 0.03670482

encoder.val_emb.bias f4 [32]
00000000: e008 ff3b 3246 50bd e18f 4d3c 1721 85bd
00000010: 7ce5 0a3c 3df2 44bb 671f b6bc c701 713b
00000020: c47c e03c ee20 03bd 9985 b439 a8b6 42bb
00000030: 9f81 7e3c 5442 db3a 1184 73bd 0a74 e13c
00000040: e3a3 443d b2b5 ffbc 270a 243d 1d57 45bd
00000050: 4efc d7bc 1559 22bd b1c4 1f3d 9b33 6f3d
00000060: 7e22 373c efe9 5abd d2c6 e73c 6b21 9bbd
00000070: 1a58 89bd e57b f73c 3854 813d 022d b8bc
0.0077830404 -0.050848193 0.01254651 -0.06500452 0.008477565 -0.0030051612 -0.02223177 0.003677474
0.027403243 -0.032013826 0.00034431813 -0.0029710922 0.015533834 0.0016728141 -0.05945212 0.027521152
0.048007857 -0.031214569 0.040048745 -0.04817878 -0.026365425 -0.039635736 0.03900594 0.058398824
0.011177657 -0.053445753 0.028293047 -0.07574733 -0.06706257 0.030210445 0.063148916 -0.022482399

encoder.a_n_att.out_proj.bias f4 [32]
00000000: 1d74 ce3c ccea 3e3c cc36 b43c 0628 423c
00000010: 54d0 bd3c bd33 b5bc aa4a 043c edbf 2c3b
00000020: ac26 fd3c 421d 17bb 3740 a0bc ff8c 8abc
00000030: 0c53 1cbd df4d 08bc 9463 183d 5f02 f93b
00000040: 2815 b2b9 fbf1 8d3c a0a8 7a3c 84bf 613c
00000050: 63f9 443b f491 d73c ec34 8b3c a7e3 c0ba
00000060: 3432 93bc b91c 85bc 036a c63b 43ac 863c
00000070: 5c0e 283b 3c91 ab3c d96a c53c 0004 f53b
0.025201852 0.01165266 0.021998785 0.011850363 0.023170628 -0.022119397 0.008074442 0.0026359514
0.03090223 -0.002305821 -0.01956187 -0.016912935 -0.038165137 -0.008319347 0.03720434 0.0075991596
-0.00033966568 0.0173273 0.015298992 0.013778571 0.0030055873 0.026314713 0.016993009 -0.0014716283
-0.017968275 -0.016249048 0.006055118 0.016439563 0.0025643324 0.020943277 0.0240988 0.0074772835

encoder.mix.bias f4 [32]
00000000: ed5c 863d cf95 04be 0f53 5cbc b2c8 273c
00000010: c95a a3ba 22b7 3abd ce11 19bd 4332 ff3c
00000020: 8ed5 80bd 6ed5 383e bc7f 9ebd 4f7c 283e
00000030: 1063 72bd 1274 1fbd ad24 15bd 55f9 74be
00000040: 20ab a4bc ed5a f93d 3e40 e3bc b1da 133e
00000050: b820 29be 7eee fd3d 374f d23c 32e0 723c
00000060: 5fdc 123e 632b a4bc e0c5 bebd cc17 3bbe
00000070: 4104 21be cd7a a5bd 1e19 28bc f246 c93d
0.06560693 -0.12947772 -0.013447537 0.010240721 -0.0012462969 -0.045584805 -0.037370495 0.031151896
-0.06290732 0.18050167 -0.07739207 0.1645367 -0.059176505 -0.038929053 -0.03641193 -0.23923238
-0.02010113 0.12175546 -0.027740594 0.14438893 -0.16516387 0.123990044 0.025672538 0.01482396
0.14341877 -0.02004022 -0.093150854 -0.18270797 -0.15724279 -0.08080063 -0.010259895 0.09827985

encoder.gat.0.query_emb.bias f4 [32]
00000000: 8171 55bd f2b6 44bd 6891 6fbd 73cb 5dbe
00000010: a891 ba3c b92e f03c 8efc 0e3e 3ba0 61bd
00000020: 9430 0ebc 1481 38be 0cb4 1d3d 5b79 9cbd
00000030: 6b61 af3d cf85 adbd 4f11 7fbd 63e1 f7bd
00000040: 3b7e 403c db3d 9a3b ada7 9e3d 172d 5cbd
00000050: 088f ea3d a297 a1bd 6a45 253e 4871 c63d
00000060: d7fc 273d 692f 4a3d 21f7 803d 77bb b9bb
00000070: 594b 653d 4435 06bd a551 6ebd 415b 76bb
-0.0521102 -0.048026033 -0.05848828 -0.21659641 0.022774532 0.029319154 0.1396353 -0.05508445
-0.008678574 -0.1801799 0.038501784 -0.07640334 0.08563503 -0.084727876 -0.062272366 -0.12103536
0.011748846 0.004707081 0.07746825 -0.05375394 0.11453062 -0.0789025 0.1613976 0.096895754
0.04101261 0.04936162 0.06297136 -0.0056680995 0.05598006 -0.03276564 -0.05818333 -0.0037591013

encoder.gat.0.key_emb.bias f4 [32]
00000000: e004 0a3c eb5b a33d b9fc 86bc 28fa 563d
00000010: ff94 84bc 1b4c e13a 706a c5bd 8a22 bebd
00000020: 609a d63d ec64 dfbc 1e6f b53d f586 21be
00000030: ff65 133d fb78 0fbe c561 f13b 8c69 943d
00000040: d84a e33c 6890 5c3d 4ac2 6cbd 9002 0cbe
00000050: 1459 07be 750d d83c b3c6 d3bd 3e15 fabd
00000060: 7a19 8b3d ae83 173d a0d6 e7bd dc8b e63d
00000070: 1660 423d 4e3f bfbd ff91 fa3c e0da 4abd
0.008424014 0.07976516 -0.01647793 0.05248466 -0.016184328 0.0017188819 -0.09639442 -0.092839316
0.104786634 -0.027269803 0.088590845 -0.15774138 0.035985943 -0.14010994 0.0073663914 0.07246694
0.02774565 0.053848654 -0.057802476 -0.13672853 -0.13217574 0.026373604 -0.10340633 -0.12211083
0.06791969 0.036990814 -0.11320233 0.11257145 0.047454916 -0.09338246 0.030587194 -0.04952514

encoder.gat.0.val_emb.bias f4 [32]
00000000: 2c29 5bbb 4107 d53d 81f3 113e 69f5 07be
00000010: f00c 2cbc 19ce 0abe 15f2 ac3d 2c42 653c
00000020: 61af 42be dc31 dcbd c0f1 693d 4f6c 1fbe
00000030: 9df0 66bd dced 3fbb 805f 7ebd b96d 063e
00000040: 9a14 27bd fc05 42be 37b9 14bd 2c7d d8bd
00000050: d2f2 fdbd d797 d1bd e4c0 a83d c0ae 17be
00000060: ede7 26bc c830 493d 2ae8 34bb ea90 b4bd
00000070: 9499 a7bd be72 e2bc 4a18 76bd 04ca 1dbd
-0.0033441288 0.10401774 0.14253046 -0.1327721 -0.010501131 -0.13555183 0.08444611 0.013992827
-0.19012214 -0.107516974 0.057115316 -0.1556866 -0.05638181 -0.0029286062 -0.062102795 0.13127793
-0.04079113 -0.18947595 -0.036309447 -0.1057075 -0.1239983 -0.10234039 0.08239916 -0.14812756
-0.010187131 0.049118787 -0.00276042 -0.08816703 -0.081835896 -0.027642604 -0.060081758 -0.038522735

encoder.gat.0.att.out_proj.bias f4 [32]
00000000: e8d3 d5bd fcec a6bc 778e 71bb e15e 80bd
00000010: 8898 0cbe f51f 3cbe 5271 2fbe 2c8a 68bd
00000020: acec a6bd fb83 82bd f093 e3bd 0566 8cbd
00000030: fdb9 4ebc 330e f2bc 168c 08be 35ba a5bc
00000040: a620 81bc 8c75 25be 674f 9ebd bb87 e5bd
00000050: 2263 63bc bd05 2abe 9073 58be 38ac 14be
00000060: 528c 3ebe 3a93 4cbd 81c3 dabd d019 0cbd
00000070: 5408 aaba c155 13be 3e32 b0bd f834 fcbc
-0.104408085 -0.020376675 -0.0036858597 -0.06268097 -0.13730061 -0.18371566 -0.17133072 -0.056772396
-0.0815061 -0.063728295 -0.11112201 -0.06855396 -0.012617585 -0.029547786 -0.13334689 -0.020230392
-0.015762638 -0.16158122 -0.077299885 -0.11207529 -0.013878616 -0.16603751 -0.21137834 -0.14518821
-0.18608215 -0.049945094 -0.10681821 -0.034204304 -0.0012972453 -0.14388181 -0.08603333 -0.030786976

encoder.gat.1.query_emb.bias f4 [32]
00000000: 1173 863e 82c0 413c fb81 0f3d 1bb0 6fbe
00000010: 5cf0 b3bb a12a b93d 436a 3d3e 4021 c0bd
00000020: 0dcf 85bd 9b9b 453e fa1f 213e 49fe 213d
00000030: 67be 643e 88f2 45be 2777 05be 79d0 2c3e
00000040: 8627 433d 8c0f 933b 484a 41bd e679 313e
00000050: 7e88 febc f1ff 1d3e b384 49be db5e c4bd
00000060: 7b83 3b3d ab34 5a3e 1bbc 173e 3910 8dbc
00000070: 90a4 f03c 1dbc bd3d 2153 6cbd f6dd 313d
0.26259664 0.011825683 0.03503607 -0.23407023 -0.0054912996 0.09041334 0.18497567 -0.09381342
-0.065336324 0.1929764 0.15734854 0.039549146 0.22338258 -0.193308 -0.13033734 0.16876401
0.047645114 0.0044879373 -0.04718998 0.17331657 -0.031070944 0.15429665 -0.19679527 -0.09588405
0.045779686 0.21309154 0.1481785 -0.01721965 0.029375345 0.092643954 -0.057696465 0.04342457

encoder.gat.1.key_emb.bias f4 [32]
00000000: 4a4e 093b 25ba cf3d f461 a83c 5bd6 c13d
00000010: 99d9 f83d 35c4 053e e0fa c33d 0e00 2b3d
00000020: d513 473d f179 73bc 2573 8b3d f7a1 ec3d
00000030: 287c 91bd 4e3f 10bc 57e4 123e b8dd 9a3d
00000040: 78f7 5b3c 610d 0ebe c5f6 a03b 5326 0cbe
00000050: 4ad3 133e f158 c93d 3a16 813c 8931 f03d
00000060: c06e b5bd 154d edbb 9a36 b4bd 3cab da3d
00000070: 7d74 42bb c38d 4e3d 9530 953c b1ef 193e
0.0020951205 0.10142926 0.02055452 0.09464713 0.121508785 0.13063128 0.09569335 0.0417481
0.048602898 -0.014860616 0.068090715 0.1155433 -0.07103759 -0.0088041555 0.14344917 0.07561821
0.0134257 -0.13872291 0.0049122297 -0.13686495 0.14436069 0.09831417 0.015757669 0.11728198
-0.088590145 -0.007241855 -0.08799477 0.106771916 -0.0029671483 0.050428163 0.018211642 0.15032841

encoder.gat.1.val_emb.bias f4 [32]
00000000: 2680 9dbd 0cd2 e63c 70d4 153e 95e1 ffbc
00000010: 1991 ad3c bf85 61bc 3dfa 38be 0825 ad3d
00000020: ba38 913c a6b9 733d 47f4 94bd 0844 6e3c
00000030: 27fa 0e3e 340f 9d3d 278e 153d 7bfc 0bbd
00000040: 087c b9bd 2231 1fbe 2a99 8a3c 431c c6bd
00000050: 73d0 103c ab53 2fbd 0d3b f1bc c4f7 f4bd
00000060: 5c48 01be 4165 fb3d 6131 9dbd 682f ad3c
00000070: 29f3 ca3b 5b56 a0ba 7ce9 92bd 3144 c4bc
-0.07690458 0.02817633 0.1463182 -0.031235496 0.021187352 -0.013764798 -0.18064208 0.08454329
0.017727245 0.05950322 -0.07273155 0.014542587 0.13962613 0.076689154 0.03651252 -0.03417633
-0.0905686 -0.15546086 0.016918737 -0.09673359 0.008838761 -0.0428044 -0.029447103 -0.1196132
-0.12625259 0.12275172 -0.07675434 0.02114077 0.0061935377 -0.0012232767 -0.0717344 -0.023958297

encoder.gat.1.att.out_proj.bias f4 [32]
00000000: 1127 9cbd b6a1 09bd b7ca 6bbd b350 95bd
00000010: 4800 06be 3027 42be b05b 24be 4ac9 83bd
00000020: 0d79 c3bd 58af 3cbd f495 f5bd 11f4 7fbd
00000030: aa1f e4bc 93c2 f73c 994d 04be 385f 303d
00000040: 7e89 5ebd 1a88 18be 4d2a 82bd b454 22be
00000050: 541e b8bd 5113 25be 46e7 68be d6fd 23be
00000060: a62c 4fbe 4430 debd 4fff dfbd 1bdb e3bd
00000070: fe29 e9bd bf12 1bbe ce53 bbbd d3cf 7abd
-0.07624639 -0.033601485 -0.05756637 -0.07290783 -0.13086045 -0.18960261 -0.16050601 -0.06434877
-0.09544573 -0.04606566 -0.11991492 -0.06248862 -0.02784713 0.030244147 -0.12920226 0.043059558
-0.05433034 -0.14895669 -0.063557245 -0.15852624 -0.0899016 -0.1612065 -0.22744474 -0.160148
-0.20231876 -0.1084905 -0.10937368 -0.111257754 -0.113849625 -0.1514387 -0.09146844 -0.061233353

aggregator.pos_enc.inv_freq f4 [16]
00000000: 0000 803f 9af5 0f3f 9be8 a13e 8718 363e
00000010: cdcc cc3d c255 663d e386 013d 39ad 913c
00000020: 0ad7 233c 9c44 b83b 383e 4f3b 2815 e93a
00000030: 6f12 833a 166a 133a 60cb a539 5377 3a39
1.0 0.56234133 0.31622776 0.17782794 0.1 0.05623413 0.03162278 0.017782794
0.01 0.0056234132 0.0031622779 0.0017782794 0.001 0.0005623413 0.0003162278 0.00017782794

aggregator.query_emb.weight f4 [128, 32]
00000000: 6d37 0c3e 0130 93be 2cbf 473b 33f8 d9bc
00000010: 3a35 1f3e 44ec d13c 1990 513d 2d57 923d
00000020: d390 4bbc 3db3 7fbe 4a8e 863d b7f6 533d
00000030: f24b 99bd a5dd 8e3d b4f6 f53d 6869 0ebe
00000040: cd94 9b3d ae94 00be d368 86bc 3e81 c9bd
00000050: 620f 8a3c 7c37 893d 1b3a 893d 10f0 35bd
00000060: c873 00bd c0d6 993d 9e14 e83d 672d 383d
00000070: 227f 96bd 5175 17be d406 bfbd 8373 f9bd
00000080: 15b6 1c3e b9b0 8e3d cc53 dfbd b42d cc3d
00000090: db01 1b3e 05d4 043b e4ef 173e 177e 19bd
000000a0: 9146 2e3e 2a8f 5bbd 6fcb b5bc 48f4 0ebe
000000b0: 53e4 4c3d 5b73 c4bd df40 b8bc 6625 92bd
000000c0: 747f f4bd bf9d 7d3c b00d ef3d e191 01be
000000d0: a475 c63c 86b8 eabd 69a8 14bd 71b6 193e
000000e0: dfca d0bd 527d 3dbd 1c85 383c 40e4 cdbc
000000f0: b808 01be 7f0f 9dbd 8803 5ebe 1cc4 1e3e
00000100: ad9b 8d3e f51f 4c3e 9dd5 1bbe 937e babd
00000110: ea99 1bbc 45a7 28be e864 82bc a03f d5bd
00000120: 9a73 6ebd 5fa7 773e a2a5 f9bd 60a5 1bbc
00000130: 2136 96bd bf1e a33d b719 4bbb ca85 d8bd
00000140: 51bd c23d 0cc3 ad3b e356 1a3d ded7 893d
00000150: 34f8 b4bd 74d8 f1bd 1fc9 21be dd0e 53bd
00000160: 5e69 1a3d c32a 863d bbf4 1bbe dd06 ebbc
00000170: 68e5 8b3d 1446 57bc 90f5 d8bc d0ae dbbc
00000180: fa38 01be eeb7 16bd 864f 733d 51e9 2f3e
00000190: 7cd4 0bbe 120d 273d 2897 debc 6505 a5bc
000001a0: 250e 95bd 675d 123e 2680 25be f2fe b7bd
000001b0: 4395 91bd 3dbe e4bc 1633 80be 6b20 903d
000001c0: 4bcc 37bd a07b 203e 80a9 e6bd 55cd 22be
000001d0: d220 b4bc 24f8 23bd 3379 1b3e 213c dfbd
000001e0: 044d 863d 18bd 21bd c158 4dbd ae5b dc3d
000001f0: dd07 d3bd 189e 023e 9c24 0fbd de2d 613e
00000200: 9301 733e a871 5a3e 6743 acbd 8018 86bc
00000210: 920a b6bc abe7 01be 08d4 30be c742 f83d
00000220: e248 833c 4b82 073e cabf e8bd c4de 93bc
00000230: d53b a83d 716a 2bbd db72 103d 8967 ddba
00000240: 5f20 893e cff4 a0bd 4b29 263e 7aa6 113e
00000250: 17c7 90bc a5fb bcbd 7457 a0bd a003 473c
00000260: bcf6 cbbd 9d70 28be 9085 1ebe 9c9a ebbc
00000270: 39f7 c63d d2f3 f53d 01d0 c33d 58a6 043d
00000280: 1b41 50bd fe43 5cbe fb3c 253d 9355 d5bd
00000290: 9169 d53d b940 903d c5d3 ff3d 491c aa3d
000002a0: f6ee 6dbd a993 32be e705 013e 4345 06be
000002b0: 31f7 1bbe 45e2 0d3d 7cef ce3d 355a 32bc
000002c0: 6ac7 f0bd a535 ccbd dd78 21be e5a1 dcbd
000002d0: c4bb 293e 108e 8bbd da2d 1a3d 6a16 05be
000002e0: d0b2 323d 9008 c5bb d2a5 cbbd 7a45 ab3d
000002f0: 358e 70bd 2919 083e 5ea2 283e f76f da3d
00000300: 2537 373d 4512 05bb f717 28be 01c3 d63c
00000310: 0201 003e 1ee5 34be 47db 2dbe 8e12 a03d
00000320: a168 083c 502d a13d 6409 513e 9efd eebd
00000330: ae0b 9b3c e0d8 fcbd a624 e0bd a326 353e
00000340: 6e66 1abe c4e0 1c3e a588 f23d 070b 67bd
00000350: 8d91 1cbd b4f1 85bd aa21 0f3e a3bb c7bc
00000360: 34f8 adbd 68da 1d3c e233 7ebd 2b15 fa3d
00000370: e091 623d 71d2 07bd 9046 a3bd 4fcd 3ebe
00000380: cf1f 5dbe e79c 01be c3b5 1e3e d25e 3ebd
00000390: ac23 62bd 858b 55bc 5122 c33c 59ec 8f3d
000003a0: 62c5 a4bc 1144 58be 1e0a 5a3d 19ec 6f3d
000003b0: b15e 033d 8607 03bd b6c3 153e b878 55bd
000003c0: 051b a03d 2613 35be a68f 9c3d 3c51 1cbd
000003d0: 0389 f63d 9a10 c83d 8939 e83c be04 57bd
000003e0: b723 b4bd 6132 1a3e 09db 333d 28fb 4fbd
000003f0: 08e7 273d 6892 15be 7136 b13d 43d5 b13d
0.13693018 -0.28747562 0.0030478938 -0.026607608 0.15547648 0.025625356 0.051162813 0.07145534
-0.0124246655 -0.24970718 0.06570108 0.051748957 -0.074851885 0.06975869 0.120099455 -0.13907397
0.07596741 -0.12556717 -0.016407406 -0.09839104 0.016853038 0.06700036 0.06700536 -0.044418395
-0.031360418 0.075116634 0.113320574 0.044965174 -0.073484674 -0.14790846 -0.09327474 -0.12180235
0.15303834 0.06967301 -0.10904655 0.09969655 0.15137427 0.0020267975 0.14837605 -0.037473764
0.17019106 -0.05360333 -0.022191731 -0.13960373 0.050022434 -0.09592315 -0.02249187 -0.071360394
-0.11938372 0.015479504 0.116725326 -0.12653305 0.024226017 -0.11460976 -0.03629342 0.15011002
-0.101949446 -0.046262093 0.0112622045 -0.025133252 -0.12600982 -0.07668971 -0.21681035 0.15504497
0.27657834 0.19934066 -0.15218206 -0.09106173 -0.009497145 -0.16470058 -0.015917256 -0.10412526
-0.058215715 0.24184941 -0.12189795 -0.009499878 -0.07334543 0.07964849 -0.003099067 -0.10572393
0.095087655 0.0053027924 0.037680518 0.067306265 -0.088364035 -0.11808863 -0.15799378 -0.051527847
0.037698142 0.06551125 -0.15230076 -0.028689796 0.06830865 -0.0131392665 -0.02648428 -0.026816756
-0.12619391 -0.036796503 0.05940201 0.17178847 -0.13655275 0.04078395 -0.027171686 -0.020144174
-0.072780885 0.14293443 -0.16162166 -0.08984174 -0.071085475 -0.027922744 -0.25038975 0.07037433
-0.044872563 0.15672159 -0.11262798 -0.1589864 -0.021988306 -0.040031567 0.15182953 -0.109001406
0.06557658 -0.039486974 -0.05013347 0.10759674 -0.10304234 0.1275562 -0.034947023 0.21990153
0.2373107 0.21332419 -0.084112935 -0.016369104 -0.022221837 -0.1268603 -0.17268384 0.12122112
0.016025964 0.13233297 -0.11364706 -0.018050559 0.08214537 -0.041849557 0.035265785 -0.0016891818
0.2678251 -0.078591935 0.1622669 0.14223662 -0.017673058 -0.09227685 -0.0782918 0.01214686
-0.0995917 -0.16449209 -0.15480638 -0.028760247 0.09715123 0.12009396 0.09561158 0.0323852
-0.05084334 -0.21510312 0.04034136 -0.104167126 0.10420526 0.07043595 0.12491564 0.08306176
-0.05808922 -0.1743914 0.12599908 -0.13112359 -0.15231015 0.034639616 0.10104272 -0.010885765
-0.11756785 -0.099711694 -0.15768762 -0.107730664 0.16575533 -0.06814206 0.037641384 -0.12996832
0.04362756 -0.0060129836 -0.09943737 0.08362861 -0.05872937 0.13290848 0.16468188 0.10665887
0.044730324 -0.002030508 -0.16415392 0.026216032 0.12500384 -0.17665526 -0.16978179 0.07816039
0.008325727 0.07869971 0.20413738 -0.116694674 0.018926468 -0.12346053 -0.1094449 0.1769052
-0.15078136 0.15320116 0.11842469 -0.056407 -0.038224746 -0.06540242 0.13977686 -0.024381464
-0.084946066 0.009634592 -0.062061198 0.12211069 0.0553149 -0.033159677 -0.07972443 -0.18633007
-0.21594165 -0.1265751 0.15499024 -0.046477146 -0.0552098 -0.013033752 0.023820074 0.070275016
-0.02011365 -0.21119715 0.053232305 0.05857477 0.032072727 -0.031989597 0.14625439 -0.05211708
0.078176536 -0.17683086 0.07644586 -0.03816341 0.12037852 0.097687915 0.028347747 -0.052494757
-0.087958746 0.1505828 0.04391006 -0.05077663 0.040991813 -0.14606631 0.08652962 0.086832546

aggregator.query_emb.bias f4 [128]
00000000: ede3 e4bd c78e 2cbd dc56 eabd df2f e73d
00000010: aefd c4bd dccc cb3c c294 993c 0169 e73c
00000020: dabf 213e 7f3b bfbd 36fa 1d3e fdab 09be
00000030: f4fc fdba 6594 d1bd dad6 f7bd 1678 bbbd
00000040: efc6 d6bd 7cb6 9e3d de6c 21bd ae95 fbbc
00000050: 6a31 f63d f651 6d3e 3b4b bb3c 4e89 c23d
00000060: 3388 99bc 1b40 3a3e 1c3b ee3c 5a7d 0e3e
00000070: 4bdc 01be 6b5e ce3d 145c fa3d 501d ecbd
00000080: 11a9 e53d bd9d 093d 70a5 3e3e 4109 1a3e
00000090: ca6b 723e fd71 a1bd 160d 173e cb2d 96bd
000000a0: 5f00 58be 7106 7fbd ebc3 243d 0f92 1f3e
000000b0: 7a45 c2bd 84b9 273e e2e0 ab3d bce9 80be
000000c0: bafe 42bd 0695 34be dc1a 1abe c42a 753e
000000d0: c078 503d aafe 0cbe 386c ae3d 32e2 483d
000000e0: 5a97 29be 1b7d 353c 0b0e 1ebe c068 393e
000000f0: d5c3 143d 8411 af3d cc7c 56bd 5024 c1bd
00000100: 1938 02ba 96fa d43d d84c 123e 7f7d efbd
00000110: 730a 743e c579 773e e653 603c 9544 023d
00000120: b6f5 6cbe 60aa a1bd bcb6 42be f6c4 113e
00000130: 8b56 2f3e 55cd 08be a3d3 bb3d 8de7 ab3b
00000140: 97a7 fa3d 2c3d 533e dcbe f03d 8842 933d
00000150: 0872 0b3e 8e62 41be 33fb 1f3d 8b7a 1d3d
00000160: bff7 e33b dd80 02be 7c29 0abd c738 c6bd
00000170: e8c8 05be 20f1 8bbe 5d7b 32bd 5551 113e
00000180: 8125 8ebd 0335 963a f860 c63d b425 de3d
00000190: ffd9 80bd fe9f 143e 0998 763d 0bfb 36be
000001a0: f712 013e 81f9 8e3c bc94 0e3d 9c36 e23d
000001b0: e4b3 433e f93d 183e 6422 1e3e d26c ecbd
000001c0: 1309 ec3c 32f0 193c 1f21 1ebe 2a6c 60bd
000001d0: b184 d03d 54fc 3fbd 77a7 cab9 dd99 8b3c
000001e0: d069 863d ec4f 8f3d 145a 733d b5fb 53be
000001f0: 3ee8 84be 5060 093d af75 a93d 631f 36bd
-0.11176286 -0.04212835 -0.11442348 0.112884276 -0.09618698 0.024877958 0.018747691 0.028248312
0.15795842 -0.0933752 0.15427479 -0.13444515 -0.0019377754 -0.10233382 -0.121015266 -0.09153764
-0.10487162 0.0774965 -0.039410464 -0.030711021 0.12021144 0.23175797 0.022863021 0.09498845
-0.018741703 0.18188517 0.02908092 0.13915005 -0.12681691 0.100766025 0.12224594 -0.115290284
0.112138875 0.033597697 0.18617797 0.15042593 0.23673931 -0.0788307 0.14751086 -0.07332953
-0.21093892 -0.062262002 0.040225904 0.1558306 -0.09485908 0.16379362 0.08392502 -0.25178325
-0.047606207 -0.17634973 -0.15049309 0.23942095 0.050896406 -0.13769022 0.08516735 0.04904384
-0.16561642 0.011077191 -0.15435044 0.18106365 0.036319572 0.08548263 -0.05236511 -0.09430754
-0.00049674656 0.10399358 0.14287126 -0.11693858 0.23832111 0.24167545 0.013691878 0.031803686
-0.23140606 -0.078938246 -0.1901502 0.14235291 0.17122857 -0.13359578 0.09171226 0.005246109
0.122389965 0.20628804 0.117551535 0.07190424 0.13617718 -0.18885252 0.03905792 0.038446944
0.006957024 -0.1274447 -0.03373097 -0.09678798 -0.13064921 -0.273324 -0.04357468 0.14191182
-0.06940747 0.001145989 0.09686464 0.10847035 -0.062915795 0.14514157 0.060203586 -0.17869203
0.12604891 0.017452957 0.034809813 0.11045572 0.19111592 0.1486739 0.15442806 -0.11544193
0.02881292 0.009395646 -0.15442322 -0.054790653 0.10181559 -0.0468715 -0.00038653213 0.017041141
0.06563151 0.06997666 0.059412077 -0.20701487 -0.25958437 0.033539116 0.082743995 -0.044463526

aggregator.key_emb.bias f4 [128]
00000000: 1d8a 97bd ba87 4e3d bd85 073e 6431 df3d
00000010: f6fd 29be 7318 c1bd 75bb 8fbd 1e4a e4bd
00000020: 7fb2 41bd 0070 bbbd dae8 613d a13e 3abd
00000030: d654 afbd e9fa 383c 9eb0 eebb 5009 823d
00000040: da61 09be d03c c13d 9f11 e1bd 8303 28be
00000050: a803 d03d 6010 603d 30d7 8c3d 43e7 7ebd
00000060: 0054 343d 9a63 09be 6504 90bc bf53 073e
00000070: bd23 ed3c 31a5 05bd 495f c83d b456 01be
00000080: c91c b53d 38bf f43d f5ed 8a3d 41d1 74ba
00000090: a038 b33d c0b3 84bd e3d2 a6bd 97df a63d
000000a0: 4c97 923d bfc9 16be 76a4 46bd 44c9 8bbd
000000b0: 56c8 d93d cece fb3d 3e56 4f3c d32a 89bd
000000c0: 04c7 0e3e 4383 b9bd 598e b1bc 006c 0c3e
000000d0: 963c d73d 00a9 cebd 3e5a 23bb b679 f9bd
000000e0: afa5 c3bd 68ad a73d 28eb 853d 445b 32bd
000000f0: e2a3 a03d 28b5 15bd 3b55 a9bd ab72 e13d
00000100: 7ab8 3a3d c44a b6bd 27bc fa3c cd2c bdbd
00000110: ab38 fd3d d7f2 f33d 66cb d93d 5d08 a73d
00000120: 22c3 b83d 6fa1 8e3d 65b5 633d 4b55 d33d
00000130: c5be d4bc 2161 20be 6ab9 0f3e 5ae7 9ebd
00000140: b7eb 3bbd 4056 1abd 5c24 153e ce06 003e
00000150: d129 ccbd 19ce ce3d e311 2fbb 74b9 da3c
00000160: 9dda 7fbd cef3 dbbc 6075 16bd 6403 0bbe
00000170: 71cb df3d 931f d43d 1c41 8cbd 6954 f63c
00000180: c462 13be 17fb 403c c127 a2bc bfbb da3c
00000190: 8c3e aa3c b05d c1bd 0ce1 82bd 16e7 1dbe
000001a0: 4ae9 1c3e f953 9bbd 0a37 1e3e d27d 05bc
000001b0: decf bdbd 2875 66bd eee9 0b3e 299c fa3d
000001c0: 2a55 b8bd e441 37bd 757f b13c bfc8 0dbd
000001d0: aa92 11be ebab 673c f39b e33d 8fd6 9a3c
000001e0: e482 4d3d e5fd 0b3e 12fc 493d fbd3 093e
000001f0: 0ff5 be3d e3b7 aebd d55a 833c 28a9 e63d
-0.0739939 0.050422408 0.13234611 0.108980924 -0.16600785 -0.094284914 -0.070181765 -0.11146949
-0.047289368 -0.09152222 0.055153705 -0.045469884 -0.08561103 0.01129029 -0.007284238 0.063494325
-0.13416234 0.09435427 -0.10989689 -0.1640759 0.101569474 0.054703116 0.06876981 -0.062232267
0.04402542 -0.13416901 -0.01758022 0.1321554 0.028947705 -0.032628242 0.09783799 -0.12630731
0.08843381 0.119505346 0.06783668 -0.00093390426 0.08751035 -0.06479597 -0.08145692 0.08148115
0.07157764 -0.14725398 -0.048496686 -0.06825498 0.10633914 0.12295304 0.012654839 -0.06697621
0.13943106 -0.09058239 -0.021674322 0.13713074 0.10509603 -0.10090828 -0.0024925615 -0.12181418
-0.09553086 0.081873715 0.06538993 -0.04354407 0.07843758 -0.036549717 -0.082682095 0.11008199
0.045586087 -0.08900979 0.030607296 -0.09237061 0.12364324 0.119115524 0.10634498 0.08155892
0.09021594 0.06964385 0.055592913 0.10319003 -0.025969872 -0.15662052 0.14035574 -0.077589706
-0.045879092 -0.03767991 0.14564651 0.12502596 -0.09968913 0.10097904 -0.0026713542 0.026699759
-0.062464345 -0.026849654 -0.03673303 -0.13575512 0.10927475 0.10357585 -0.06848356 0.030069547
-0.14393145 0.0117786145 -0.019794347 0.026700852 0.020781778 -0.094416976 -0.063905805 -0.15420184
0.15323368 -0.07584376 0.15450683 -0.008147674 -0.09268163 -0.056264073 0.13663456 0.122368164
-0.09000619 -0.044740573 0.021667222 -0.034615275 -0.14216104 0.0141401095 0.11113729 0.018901138
0.050173655 0.13671072 0.04931266 0.1345977 0.09324085 -0.08531167 0.016034523 0.11262733

aggregator.val_emb.bias f4 [128]
00000000: cd40 0d3e f181 843d 8200 ec3d c737 263c
00000010: 97cd 4a3d 8025 633d b42f a4bd 6276 d33d
00000020: 6aa9 fbbd 6387 ea3c 9778 eebd ee28 9fbc
00000030: 594c d83d 8d38 e83c 61bb 0fbd b2c2 d23b
00000040: 8ea5 66bc 6435 cabd 3c27 a63d 884f 06be
00000050: 82b9 56bd ff10 83bc fbe1 553d 77e4 8fbc
00000060: 789c 2dbd 0969 9bbd f3e7 bdbd c2b5 27bd
00000070: c0c5 05bd d65a 503d f73f 8d3d 683f a7bd
00000080: 688d f43d c7dd 023e 8cb3 b2bd 22d8 babd
00000090: d486 eabd 9b31 613d 0077 b43c 7bd3 e73d
000000a0: 5c86 d43d 4471 653d 3d38 b43d e3a7 9a3d
000000b0: 5349 cdbd 0d2d be3d f131 36bd 838d 033e
000000c0: 8c75 f1bd 0f5f 2a3d 21ac 943d 3837 463c
000000d0: 4b81 b5bd 56c1 513d 15f8 693d aa23 e6bd
000000e0: 0c8d 463d ed61 80bd e0ee ef3c a58d e13c
000000f0: 571c b43d 59cc ccbd 6b76 1ebe 1be0 9f3d
00000100: e0e7 8bbd 3020 f73c 5d21 203e 1e1c d33c
00000110: 13e0 e9bd 0cd9 aebd 81f0 ae3d b0b1 b63d
00000120: 541f 1bbd 2b2f 353d da7b d7bd 8c29 a83d
00000130: b373 b8bb b1e2 373d 8ff8 a9bc 39e0 ff3c
00000140: 7abc 7fbd f593 09bd 769d 0abd f22d 4bbd
00000150: 0831 ecbd b62c a33d 39de bd3c ac2c 693d
00000160: 5469 923d af3c 0bbe a944 15be 1dc0 20be
00000170: dc06 02be f0d6 ab3d 4f5c 9bbc cef0 f0bd
00000180: 703c b1bd 82b2 a93d 69b4 213d 4ed1 f03d
00000190: 9aa8 063e 88f9 0b3d b5b0 71bc 6551 c93d
000001a0: 2539 cfbc 0705 f5bd be24 163d 9070 113e
000001b0: 849f c3bb b7df 173e 1236 c43d 054b 0b3d
000001c0: 7c2a 18bd 2656 803d 57bb 32bc 9dd8 7abd
000001d0: 2b5d 96bd 371a 803d bc83 80bd 61e8 74bc
000001e0: 5b15 e4bd 831a 78bd 64d9 b13c dd63 c63d
000001f0: b6b9 debd 4a6e 4fbd 8310 85bd 57a5 15bd
0.13794251 0.06470097 0.11523534 0.010145134 0.049512472 0.055455685 -0.08016911 0.10325314
-0.122881725 0.02862901 -0.116440944 -0.019428696 0.10561437 0.028347278 -0.035090808 0.006431901
-0.014077557 -0.09873465 0.08112952 -0.13116276 -0.052423008 -0.015999315 0.052217465 -0.017564995
-0.04238555 -0.07588393 -0.092727564 -0.040944822 -0.032659292 0.050867878 0.06896966 -0.08166391
0.119410336 0.12779914 -0.08725652 -0.09123255 -0.11451498 0.054978948 0.0220294 0.113196336
0.103771895 0.05601622 0.08799789 0.07551553 -0.10023751 0.092859365 -0.04448122 0.12846951
-0.117899984 0.04159456 0.072593935 0.012098126 -0.08862551 0.05120977 0.057121355 -0.11237271
0.048474357 -0.06268678 0.02928871 0.027533362 0.08794468 -0.09999914 -0.1547486 0.078064166
-0.06831336 0.030166715 0.15637727 0.025770243 -0.11419692 -0.08537492 0.08541966 0.0892061
-0.037871674 0.044234436 -0.1052167 0.082110494 -0.005629027 0.044893924 -0.020748405 0.031234847
-0.062435605 -0.03358837 -0.033841573 -0.049604364 -0.115327895 0.07967512 0.023177253 0.056927368
0.07148996 -0.13597368 -0.14576973 -0.15698285 -0.12697929 0.083906054 -0.018964915 -0.1176468
-0.08654106 0.08286001 0.039478693 0.11758672 0.13150254 0.03417352 -0.014751603 0.09829978
-0.025295803 -0.119638495 0.036656134 0.14203095 -0.0059699435 0.14831434 0.095806256 0.03400709
-0.03714989 0.062664315 -0.010908923 -0.061241735 -0.07341989 0.06255 -0.06275126 -0.014947982
-0.11136886 -0.06057216 0.021710105 0.09687016 -0.10875265 -0.05064229 -0.0649729 -0.036534633

aggregator.mha.out_proj.bias f4 [128]
00000000: ca85 2fbe 51fc 13bc 4ec4 9abd 1916 e5bd
00000010: d50a 1a3b c660 f1bd c253 d13d 0a03 a5bd
00000020: 5e24 16be eaaa f0bd a08b 11be a247 26b9
00000030: 2ad0 213e 40a0 a3bd d0b1 9b3b 1fee 473e
00000040: ce2c 273e 72c0 cfbc 8ae6 fc3b 2cd6 553e
00000050: a664 8b3d cd76 013e ed22 9f3d 244e 02bc
00000060: 9302 0a3e 0522 763d 0de3 163e 4282 2fbe
00000070: fd1b a7bd ebcc f7bd 590f de3d e860 b4bc
00000080: 604f 48be 1a77 373e b3ea 1ebe 06d7 c03d
00000090: 8296 d03d 8429 17be a468 a2bd 42b9 f0bd
000000a0: c1f8 c8bd 2a31 b33d 5a97 7a3e e244 fd3d
000000b0: ca24 183e fd6a 7f3e 341c 2bbe ae6b e5bd
000000c0: e6ce f0bd 0604 c33c 2cf4 08be eb00 a1bd
000000d0: f6d5 813d c90c 97bd 761a d5bc 4ae3 48bd
000000e0: eb5c 00bd cd8a 153e 58f3 0b3e 5948 29be
000000f0: 696c e53d 209c 103e e8a9 7d3d 8548 eb3c
00000100: 4c30 2b3d 6606 1c3e 6247 2e3e 8760 e53d
00000110: 1b5c a4bd c4c5 713e a4be 8c3d 24f1 eebd
00000120: f7c8 a23c d920 eb3c b29c da3d 8c41 dabc
00000130: 4811 28be 1169 82bc 27e0 f7bd 541d dcbb
00000140: 1b95 94bc 6874 233e 6fd6 11be f9ef f03c
00000150: 0a56 cfbd 000c debc e5b1 4ebb f6fa 72be
00000160: 20e0 f8bd 84bb 1abe e89d 2e3e 5c1f 4c3d
00000170: 2087 6b3d 0e6e fe3d 6e8d 32be 508c 7ebd
00000180: 123c 1a3d 654a b93d fa53 ebbd 737a cfbd
00000190: 6c6a 0a3c 8c44 093e 7163 37be 6acb 0dbe
000001a0: a731 04be 35f1 2ebe 6aad 0ebc 463b dd3d
000001b0: 1f2e d03b b22c 20bd 1a6c 07be 62ad 173d
000001c0: c051 99bd aad4 893d bd3e bfbd d304 243e
000001d0: d795 acbb ab52 df3d a00d 093e 0866 31bd
000001e0: 9660 37bd ad1c f8bd 6186 2cbe 8ac2 293e
000001f0: 936c 7abd bef9 143e cbea f73d 7469 433e
-0.1714088 -0.009032325 -0.075569734 -0.111858554 0.0023504992 -0.11786036 0.10221054 -0.0805722
-0.1466231 -0.11751349 -0.14213419 -0.00015857679 0.15802065 -0.0798955 0.0047514215 0.1952443
0.16325685 -0.02536032 0.007717912 0.20882481 0.068063065 0.12642975 0.077703334 -0.0079532005
0.13477544 0.060091037 0.1473505 -0.17139533 -0.08159635 -0.12099632 0.10842771 -0.022018865
-0.19561529 0.17916527 -0.15519218 0.094160125 0.10184957 -0.1476193 -0.07930115 -0.11754085
-0.09813071 0.08749612 0.24471799 0.12366654 0.14857784 0.24943157 -0.16709977 -0.11202179
-0.11758213 0.02380563 -0.13374394 -0.07861503 0.06339638 -0.073754855 -0.026013594 -0.049044885
-0.031338613 0.1460373 0.13667047 -0.16531505 0.11202318 0.14122057 0.061929613 0.028721103
0.041794106 0.15236816 0.17019418 0.11200052 -0.0802538 0.23610598 0.06872299 -0.11667088
0.019871218 0.028702186 0.106744185 -0.026642583 -0.16412842 -0.01591924 -0.121033005 -0.0067173634
-0.018137505 0.15962374 -0.14241956 0.029411303 -0.101238325 -0.027105331 -0.003153914 -0.23728547
-0.121521235 -0.15110594 0.17052424 0.049834594 0.057501912 0.12423335 -0.17436764 -0.06214553
0.037654944 0.09047393 -0.11490627 -0.10130777 0.0084482245 0.13405055 -0.17909028 -0.13847128
-0.12909566 -0.170842 -0.008708337 0.10802321 0.0063531543 -0.039105125 -0.13224831 0.037030585
-0.07486296 0.067300156 -0.09338138 0.16017465 -0.0052668857 0.109044395 0.13384104 -0.043310195
-0.044769846 -0.121148445 -0.16848136 0.16578117 -0.0611387 0.14548394 0.1210533 0.19083196

decoder.hidden.bias f4 [128]
00000000: 5249 163e a40f 5a3e 2a83 553e d6ad 203e
00000010: ffbc c1be 01d8 55be ebb4 1dbe 5c8f 86be
00000020: 9054 863e 8359 c0bd 509b ae3e 243a 463e
00000030: 9267 66bd 4c34 4c3d d5dd 06bd 0e41 10be
00000040: 3f18 66bc 6b07 6bbe 6f20 063d 2ba6 343d
00000050: 213b ffbd 6bf4 68be ffe2 d33d ff3b 6ebe
00000060: 9a80 3f3e 44df 483e 7e29 bb3d e7db 673e
00000070: f2eb 063e 2ce5 9a3e c53e 91be c208 6c3e
00000080: 6556 e13d 3257 56be 6ac5 14be 1966 503e
00000090: c3f2 32bc cf8c 193c d159 3b3e 5275 983d
000000a0: 3264 55be 564a 713d 2c70 28be 650c 933d
000000b0: 0748 ad3d e05c 68be 68ea 28be 2a60 c3bd
000000c0: b589 15be 6763 ac3d de39 023e 13b0 f73d
000000d0: cf27 cebe 168d 3abe 3912 9bbd 6745 123e
000000e0: 8efa b8bd 5839 a33d 0650 a4be ca3d 19bd
000000f0: b39e 93be 64c4 183e ad61 433e 3bef a23e
00000100: 5aa7 aabe 3eec 1f3e 4916 0c3d b763 bf3d
00000110: a873 f7bd 4d36 493e ea2f 163e ab8b 60bc
00000120: 186d ddbd 5ede 42be 0dd1 cdbd 6d83 9c3d
00000130: c44a 393d 3535 873e c116 9d3e e08c 23be
00000140: 6f8a 8a3e 1e67 0bbe 26ab 8cbd e815 d63d
00000150: 8077 83bd 883d 953e f0f1 d2bd 49fa 36be
00000160: 7fc8 bc3e d924 543e 9bd0 543d 42d2 63be
00000170: 557a 2f3d ee6f 773d 831f 463d f787 de3e
00000180: 9ee7 803d ac77 3d3e 223b 653e 4823 2f3e
00000190: 269b 593e 9f5e 3e3e 0dbd 933e 6951 453e
000001a0: 2649 22be bb6f 5d3d 9345 5c3d e9c0 203e
000001b0: a284 6d3d a76b 8ebd 81e9 3d3d 3a56 173c
000001c0: adab 72be 9558 12bd d040 3a3d e3f3 713e
000001d0: b0b4 f1bd 102b 93bd 8cfa 0a3e 4bcc 80bd
000001e0: 5a80 a53d 6ce2 f439 2062 85be 0c58 f0bd
000001f0: 9ff5 7e3e d4d6 c6be d58d f8bd c682 93bd
0.14676407 0.21295029 0.20850816 0.15691313 -0.37839505 -0.2088318 -0.15401046 -0.2628125
0.2623639 -0.09392073 0.3410287 0.19358116 -0.056251116 0.04985456 -0.0329264 -0.14087316
-0.014043867 -0.22952048 0.032745775 0.044103783 -0.1246245 -0.22749488 0.103460304 -0.23265074
0.18701401 0.19616419 0.091387734 0.2264248 0.13175943 0.3025297 -0.28368202 0.23050216
0.110028066 -0.209317 -0.14528432 0.20351447 -0.010922137 0.00937195 0.18295981 0.07444252
-0.20839003 0.058908783 -0.1644904 0.071800984 0.08461004 -0.22691679 -0.16495669 -0.09539826
-0.14603312 0.08417397 0.12717387 0.1209413 -0.40264747 -0.18217883 -0.07571835 0.14284287
-0.090321645 0.07969922 -0.32092303 -0.037412442 -0.28832015 0.14918667 0.19080229 0.31823143
-0.33330804 0.15617463 0.03420094 0.09345191 -0.120826066 0.1964962 0.14666715 -0.013705174
-0.108118236 -0.19030139 -0.10049639 0.07642255 0.045237318 0.2640778 0.30681422 -0.15971708
0.2705874 -0.13613555 -0.068685815 0.10453397 -0.06419277 0.29148507 -0.10300052 -0.17868914
0.36871716 0.20717181 0.051956754 -0.22248176 0.042841274 0.06040948 0.048369896 0.43463108
0.062941775 0.18502682 0.22385839 0.17103302 0.2125059 0.18590783 0.28855172 0.19269337
-0.15848216 0.054061633 0.05377729 0.1569859 0.057987817 -0.06954127 0.046365265 0.009236867
-0.23698302 -0.03572901 0.045471966 0.23628192 -0.118020415 -0.07185948 0.13572139 -0.06288966
0.08081122 0.00046708004 -0.26051426 -0.117355436 0.24898385 -0.38835776 -0.12136427 -0.072026774

decoder.op_traj.bias f4 [24]
00000000: 7838 89bc 78b6 b53d 7b40 1b3c e4e5 223e
00000010: 4829 c4bc ff06 583e 6af3 0abc 9453 873e
00000020: 02c6 563c 8a94 6e3e dcce bb3b a67f 973e
00000030: 2134 613d fd01 793e e9a3 683d 4319 863e
00000040: d726 7b3d 15bd 8c3e 4145 943d 3578 603e
00000050: 0b70 973d 16af 7a3e 3db3 ea3b 65b5 143e
-0.01675056 0.08872694 0.009475823 0.15908009 -0.023945466 0.21096419 -0.008480886 0.26430953
0.013108732 0.2329885 0.0057314467 0.29589576 0.054981355 0.24317165 0.056796942 0.26191148
0.061316337 0.27488008 0.07239772 0.21920855 0.073944174 0.24480852 0.00716248 0.14522322

2245 f4 [5, 16]
00000000: a4e5 893e b474 713e 7ce9 d6bf a90d 4ebf
00000010: 7d04 f1be 9667 873f ea1c 483d 32c1 4b3e
00000020: ffef c73e c859 90bd 833b 143f 2065 d63e
00000030: 8264 4fbf 7d05 9ebe f789 08be 67db 8e3d
00000040: 94eb 6fbe 210d 52be 861f 89be 7499 363d
00000050: 4a5f 4e3f baa3 8cbe a4c6 6d3d a92e 2d3d
00000060: e7fa 6e3f c649 813f affa 61be ccc4 76be
00000070: 6c1b 9a3e 0a4c 8f3d 8858 2dbd c8f1 d33d
00000080: 77fc 02bc 1fca 93bc 3a0e de3c 7f46 753d
00000090: 1416 1bbc af82 353e 5d68 dabe 85bd 953e
000000a0: 8db2 26be 409e 99be 0bdb 84be 0278 4f3e
000000b0: ac61 b73e b7f9 e13b 3598 ca3d 6315 a5be
000000c0: 3404 07bf 86cd d63e e857 1bbd 80a8 8d3d
000000d0: e2fc 313e 4d86 803c 0526 b03e 2e44 883e
000000e0: 716b 17bb df4a 91bd 44d8 373e 3d61 93be
000000f0: 037b 913d f23a 96be b9e6 fb3e 5e39 35be
00000100: 814e b63e 0fb5 a93f c219 7cbf 23ba 18c0
00000110: 3358 a9be 8217 a63e 6432 a93d 6771 603f
00000120: f70e 933e dae0 81bc 9b60 55bf f5e7 433f
00000130: 3a83 33bf 1a10 9dbf 3970 eabe 5455 813d
0.26933014 0.23579675 -1.6790004 -0.80489594 -0.47073737 1.0578487 0.0488557 0.19897917
0.3905029 -0.070483744 0.5790331 0.41874027 -0.8101274 -0.30863562 -0.1333388 0.069754414
-0.2342971 -0.20512821 -0.26781863 0.044579938 0.8061415 -0.27468663 0.058050767 0.042280827
0.93351597 1.0100639 -0.22068284 -0.2409851 0.30099046 0.06996925 -0.042320758 0.103488505
-0.007994763 -0.018040715 0.027106393 0.059881683 -0.009465713 0.17725633 -0.42657748 0.29246154
-0.16279049 -0.30003548 -0.25948367 0.20260623 0.35816705 0.0068962234 0.098923124 -0.3224288
-0.5274079 0.41953677 -0.03792563 0.069169044 0.17381623 0.01568904 0.34404007 0.26614517
-0.0023104812 -0.07094359 0.17953593 -0.28785124 0.07103541 -0.29341847 0.49199465 -0.17697665
0.3560677 1.325838 -0.98476803 -2.386361 -0.33075103 0.3243981 0.082615644 0.8767304
0.28722355 -0.015854288 -0.83350533 0.76525813 -0.7012211 -1.2270539 -0.45788744 0.06315103

2263 f4 [1, 96, 16]
00000000: 585f f9bd 89ab 3cbe fd52 56be 2773 ebbd
00000010: 60b1 d43d d2c5 f2bd d0a0 99bc e07d 9abd
00000020: 89be d0be e3be d2be 759e e9be 9e37 163d
00000030: 11dd c3bb 10fd 87bd 0ae5 423d cef3 4bbc
00000040: 1f95 313e 201f d0bd 4658 31be 93ad ab3d
00000050: 0c3f 0fbc adbb 59be 3b8d d33c e865 d13b
00000060: 32ba c93d 4744 ac3d c7d8 a53e 3432 78bd
00000070: 97e7 2abe f7a1 ab3e a885 16be c9be a2bd
00000080: 55b9 febd a9a2 c8bd 3e0b d1be c37a 403d
00000090: 678f ea3d 6eb2 ecbd d382 babd d46b 6d3d
000000a0: a580 e2be 015b 3abe 5848 05bf 9214 22bd
000000b0: af64 883d 7cd8 a53d dfd9 0e3d ce0e 22be
000000c0: ff4a 2bbe f733 28be 5080 193d eb80 4fbc
000000d0: 7248 e23d 3a70 0d3d 77c7 e53d dcd7 1cbe
000000e0: fae4 d13d b4e8 8c3d 0754 87bd 9e10 4cbd
000000f0: 6806 203e 5b9c 9b3c 55dd e9bd 302a 913c
00000100: 8f5d 09bd 826a 88be b3e4 20be 7bd0 283e
00000110: 8111 613e e17a a1bc 6afd 0c3e af6b 7e3e
00000120: 6d84 ac3d 5fad 0dbe 88a8 febe 6945 fd3d
00000130: 8b16 2b3e 1410 363e 7d8c 223d 9fdf 79bd
00000140: 0747 2d3e e395 c2bd 0d7b 41be da48 e0be
00000150: 6649 05be 0f76 26be d6a9 3fbe be77 92bd
00000160: 7cb5 dbbd 3af9 233e 2de2 073e 4670 ffbd
00000170: 0d6d 42be 4426 2c3a e73f aa3d 9381 2a3d
00000180: cac9 9c3e 95f6 1bbd 714d 073e dc64 11be
00000190: 9442 d23d 3736 42be 7c2d 0cbf b594 e3bd
000001a0: ed5a eabe 4879 babd 80aa e93d 9397 65bd
000001b0: f9d5 a3bd 8afb a43e 8926 9cbe 97e4 f63e
000001c0: 5445 bdbb 46b9 1abd 20a8 6bbe 829a a63e
000001d0: aacd 813d c3af 0abe 67e5 a2be 7409 193d
000001e0: 5cbb 0dbe 1866 b4bd 515d c6be c310 b8bd
000001f0: 896e 8c3e 85c4 a03d ef22 9b3e 1753 e9bc
00000200: ea2b 723c 428c 88be d3bd a9be 17c5 5f3d
00000210: b347 2bbe 9230 afbe aa73 52bd 3675 65bc
00000220: 1121 02be 4d97 d8bd f8f8 94be 1b97 96be
00000230: 848e e9bd 43a2 2b3d 5ac4 1ebd 7c83 ec3d
00000240: b51d e23d 396a 2c3d 210b a8bd dd58 8fbe
00000250: 3d94 ab3c 7447 92be 7d96 273e 5c29 93be
00000260: 123e 4ebe 4ec1 273e ba77 143e 2dc8 a2be
00000270: 6ced dbbc 9d14 b53d e5cd 263e cadc 8fbd
00000280: b77e a63d 1877 cbbd 0bfc 3cbe e456 36bd
00000290: ae0f bebd 46df 46be 0841 86bd 3384 48be
000002a0: 4bfa 013e c4d8 1ebe 6488 443e febe 8f3d
000002b0: edf4 4bbd 775e 373e 8146 33be 40b6 86be
000002c0: 9766 b1be 0baa abbd f16b f6be 3c4b 40bd
000002d0: 8d20 1bbd 5a2b 06be 3ae1 2bbd d14b 08be
000002e0: 2219 acbe 545f 2bbe 940f b4be e09b 36be
000002f0: 9f7c 343d 65fb 18be f082 623d 0c37 073e
00000300: a39e 1a3e b120 ee3d 6663 453d 50ad 6d3d
00000310: 1135 52be 6147 f43d f280 9ebc b91b 7f3c
00000320: a3b7 c1bd e478 bdbc 6fb1 713e 8ed6 383d
00000330: fc4a 25be ee48 543e 4270 373d 6bb4 463e
00000340: 94d6 cdbd 2dd5 113e deb3 99be 8ac8 22be
00000350: 670a 0e3e d811 103e 8bf7 87be 8f5d fb3a
00000360: 90ab a1be 96b2 47be 3bcb 9b3e 6158 673d
00000370: 7ba2 003d 0b69 b03d 62b6 7a3d 9d50 c73d
00000380: 5776 3abe 93fd 33be 72d1 41be a99d 783d
00000390: 24b9 143e 67da 3b3c 3cfc 02bf 52a8 503e
000003a0: 9465 1abf 47b6 72be 9fd5 62be 8a59 6e3d
000003b0: b059 633e 8e06 29bd efca 6c3e 5593 47bd
000003c0: 158e 593e c030 d23d 48d9 f03d 9592 cf3d
000003d0: 4168 0fbe e4a6 613e bb0a 9abe 824d 2e3e
000003e0: 3bef a2bb 6b4f f43d d95d e03d 4dc5 c33b
000003f0: ec2d f33d 7e75 fc3d b900 7c3e 000b 643d
-0.121763885 -0.1842481 -0.20930095 -0.11496573 0.10385394 -0.118541375 -0.01875344 -0.0754354
-0.40770367 -0.4116126 -0.45628706 0.036674134 -0.005977281 -0.06640065 0.04758171 -0.012448264
0.17342041 -0.101621866 -0.1731883 0.08382716 -0.008743059 -0.21262999 0.02582418 0.006390322
0.09849967 0.0841146 0.3239195 -0.060594752 -0.16689907 0.33522007 -0.14699423 -0.07946546
-0.12437693 -0.0979665 -0.4082889 0.046992075 0.11453133 -0.1155747 -0.09106984 0.05796416
-0.44238773 -0.18198778 -0.5206351 -0.0395704 0.06659829 0.08097932 0.034875747 -0.1582596
-0.16727827 -0.16426073 0.037475884 -0.012665014 0.11048974 0.034530856 0.112196855 -0.15316719
0.10248752 0.06880322 -0.06607824 -0.049820535 0.15627444 0.018995455 -0.11419169 0.017720312
-0.03353649 -0.2664376 -0.15712242 0.16485779 0.21979333 -0.019711914 0.13768545 0.24845766
0.08423696 -0.13835667 -0.49737954 0.123667546 0.16707818 0.17779571 0.03968476 -0.061004277
0.16921626 -0.09501245 -0.18894596 -0.4380558 -0.1301628 -0.16255973 -0.18717131 -0.07151745
-0.10727975 0.16013041 0.13269873 -0.12472586 -0.18986912 0.00065669813 0.0831297 0.041627478
0.30622703 -0.038076956 0.13213135 -0.14198631 0.10266605 -0.18965994 -0.54756904 -0.11112348
-0.45772496 -0.09105164 0.114094734 -0.056052756 -0.079997964 0.3222316 -0.3049815 0.48221275
-0.005776087 -0.037774347 -0.23013353 0.32539755 0.063380554 -0.1354361 -0.31815645 0.03736253
-0.13841003 -0.08808535 -0.3874307 -0.08987572 0.27428082 0.07849983 0.3030009 -0.028482003
0.014780978 -0.26669508 -0.33152637 0.05463132 -0.1672657 -0.34216744 -0.051379837 -0.014004996
-0.12707926 -0.10575733 -0.29096198 -0.2941216 -0.11404136 0.04190279 -0.038761474 0.11548516
0.110408224 0.04209349 -0.08205248 -0.27997485 0.020944709 -0.2857014 0.16366 -0.28742492
-0.20140865 0.16382334 0.14498797 -0.31793347 -0.02684661 0.08841822 0.1628948 -0.07024534
0.08129638 -0.09934825 -0.18455522 -0.04451646 -0.092803344 -0.1942111 -0.065553725 -0.1958168
0.12693135 -0.15512377 0.19192654 0.07018851 -0.049794126 0.17907129 -0.17507364 -0.2631092
-0.34648582 -0.083820425 -0.48129228 -0.04694675 -0.03787284 -0.13102475 -0.04196284 -0.13310172
-0.33612925 -0.16735584 -0.35168135 -0.17832899 0.04406416 -0.1493965 0.055300653 0.13204592
0.15099578 0.11627329 0.048190497 0.05802661 -0.20528056 0.11927677 -0.019348595 0.015570574
-0.09458854 -0.023128934 0.23602842 0.04512649 -0.16141886 0.20730945 0.04478479 0.19404761
-0.10050693 0.14241476 -0.3002004 -0.15896812 0.13871156 0.14069307 -0.26556048 0.0019177663
-0.31576204 -0.19501719 0.3042849 0.05648077 0.031404953 0.08613785 0.06120909 0.09732173
-0.18209206 -0.175772 -0.18927553 0.06069723 0.1452375 0.011465645 -0.5116613 0.20376709
-0.60311246 -0.23702346 -0.22151802 0.05819086 0.22202182 -0.041266017 0.23124288 -0.04872449
0.21245606 0.102632046 0.11760193 0.1013538 -0.14004613 0.2203632 -0.30086312 0.17021754
-0.004972366 0.1192921 0.109554 0.005974448 0.11873993 0.12327097 0.2460965 0.055674553

2264 f4 [1, 96, 32]
00000000: d040 a3be 1f13 f7be 9802 883e 558c bc3d
00000010: c95c a93c 7caf b6be c573 d33e 9f3c 0bbe
00000020: e365 a5bd 9dd4 29be 87fa c83e 7bdf 343e
00000030: 2294 20be c115 953d 53c2 44bc b529 443e
00000040: a019 97be 1889 f6bd 63b6 3e3e 84ea da3d
00000050: eae9 1abe 7ce0 473e cdad a8bc 5268 cb3d
00000060: dd24 b9bd 68b8 c13a 040a 0f3d abcb 6b3e
00000070: 1934 513e 03f6 d3be 500e 5d3d 5ee1 48be
00000080: d06f 89bd affa 8abe f762 7abd 1f26 1abb
00000090: c1ba 763e 7225 05be 8dc3 d0bd fc6c 163e
000000a0: 01ab 75bd 2204 313d df32 563e 7f3b 11bd
000000b0: 6467 f5bb d984 24bc a91c 46be d584 09be
000000c0: d873 b83d 36db b0bb 93d1 97be cd2e 183c
000000d0: 4fdb 51be 382c 10be 1495 9bbd 98d6 92bd
000000e0: ed02 3dbd ef04 d4bd 693e 583e 06dc 453d
000000f0: 1102 4c3c 989d 0c3e a506 b73d 76a9 0d3e
00000100: 8d1b 60be e215 80bd 203e 233d b0e4 993c
00000110: 36f8 21be f4f7 4e3e 0884 cbbd 4740 56be
00000120: ab5a 143e 16d4 20be f4fc d9bc 756f 65be
00000130: 2c18 34bd be35 e8bd 5db8 3cbe 3d9e ccbd
00000140: af9a eabd 59e9 c43d a9d2 acbe 2631 89bc
00000150: 7ba3 453c 5ee7 b3bb f7c4 093e 7b77 7ebd
00000160: 4cc9 8a3d 7935 dfbd 3524 ff3d dfd9 153e
00000170: b9ff 8dbd 24ca 02be 7d21 4abb c39a 103e
00000180: 0b7f 8cbe a82c afbe c8e1 bc3c 787e 123e
00000190: 42e7 41be a054 10be 1edc f23e 6bd8 7dbd
000001a0: a10a 1d3d bb39 44bc 7cfe 963d dc68 3e3e
000001b0: 618d 00be 5bf9 913b daac 0ebc a75d f83d
000001c0: 34f9 0dbe 3b4c 3fbe bf24 51be 1134 88bd
000001d0: c641 f63d 9fed 253e 84c5 2abe 900d 44bc
000001e0: acde 91bd 8474 c73d a5dd 5abd 02f0 9d3e
000001f0: d46c 9a3d 8256 d6be aff7 393a 04b5 b1bc
00000200: 0808 4a3e 8b1d 6dbe 9f1e c63c 3aa4 19bb
00000210: 252c da3d 1f39 14be afb9 813c c7d7 2cbd
00000220: 87a4 e33d 2fd5 c2bd 18f9 a83e 2434 ffbc
00000230: 520a cd3c 8096 1d3e 40f8 3cbe 9652 dcbd
00000240: 4de3 9cbd 86b9 88bd f94a 55be 0774 533c
00000250: 9216 7fbe ddef 7e3d fac7 84bd 2f84 b7bd
00000260: df4b 953d 227d da3c d060 393e 5d5c aabd
00000270: 49fc 3fbe ff5c 423d 55b1 cc3a 7fbe 2c3e
00000280: 0e45 0c3e ac1a 48bd fb9f e53c bae0 35bd
00000290: e513 833e dda7 8fbe 6ddf 7b3d 9ff5 cfbc
000002a0: 66d5 e0bd cb45 f03d 24ee 603e d1d2 4c3e
000002b0: 2539 343d fb9c 9ebd 1d81 b83d dd49 aabb
000002c0: d86c 8cbe 37f5 a8bd 6834 2a3e f24a 483e
000002d0: 4431 86be 92d6 c0bd 60e8 f63a f710 e4bb
000002e0: 1e23 9b3d da38 00be 8077 533e 5eea 36bd
000002f0: 9fa2 ef3d 1269 703c b2fc 9dbd 7454 ca3d
00000300: 1ba6 37be acfb b2bc 5183 453c 6ce3 17be
00000310: 4f2c 323e 61cc dbbd fbc9 ac3e 9abf 003e
00000320: 0fd7 eb3d b523 64be 6608 ea3d 5e47 46bd
00000330: 89e5 033e 45e4 c33d 9695 16bc a560 4fbe
00000340: 4a13 e03d be5f 14be 4776 2ebe 05b5 8dbe
00000350: 1e28 f1bd 3b43 82bd 6dcf 03be e535 a93d
00000360: 0271 50be a367 293d 7e9a 10bd a2ab 883e
00000370: 2b46 26bd 08fa fc3d 1d6d ed3c d656 3abe
00000380: 0c52 b4bd 2fa5 52bd 18bc 19be abfc bf3b
00000390: 55fb 3fbe 7f4f 6dbe a78d 753d 7afa 9d3e
000003a0: adb8 553d 007e 34be 2836 edbd 4016 023f
000003b0: 2fad d7bd 0ccf 9e3c b5e5 b83d 175b babb
000003c0: 8cbf 7c3d 372f 90bc 64dc a33c fc39 a4bc
000003d0: 644e 213e 1bf1 723d 09ef c33c 9e15 a53c
000003e0: 035a 163d 0e58 14be 34a3 603e 8d33 14bd
000003f0: 6070 c43c b351 563e 1902 bfbb 1e49 c53d
-0.31885386 -0.48256776 0.2656448 0.09206454 0.020674126 -0.3568076 0.41299263 -0.13597344
-0.08076074 -0.16585012 0.39253637 0.17663376 -0.15681508 0.0727954 -0.012009221 0.19156535
-0.29511738 -0.12037867 0.18624263 0.106892616 -0.15128294 0.19519228 -0.020590687 0.09932007
-0.09040234 0.0014779689 0.03492166 0.23026912 0.2043003 -0.4139863 0.053968728 -0.19617221
-0.0671078 -0.2714438 -0.061129536 -0.0023521257 0.24094678 -0.13002566 -0.10193548 0.14690012
-0.059977535 0.043216832 0.20917843 -0.03545713 -0.0074891318 -0.010041439 -0.1934687 -0.13429578
0.090064704 -0.0053972257 -0.2965208 0.009288502 -0.20493816 -0.14079368 -0.07596794 -0.07169837
-0.04614537 -0.103525035 0.21117558 0.048305534 0.012451665 0.13731992 0.08936814 0.13834175
-0.2188551 -0.06254174 0.03985417 0.018785805 -0.15817341 0.20211774 -0.09937292 -0.20922957
0.14487712 -0.15705904 -0.026609875 -0.22405799 -0.043968365 -0.113383755 -0.18429704 -0.09991119
-0.11455285 0.0961482 -0.3375447 -0.016747069 0.012062903 -0.0054902276 0.13454042 -0.062125664
0.067766756 -0.10898871 0.12458078 0.14633892 -0.06933541 -0.12772423 -0.0030842714 0.14121537
-0.27440676 -0.34213758 0.02305688 0.14306056 -0.18935874 -0.14094782 0.4743356 -0.06197397
0.038340215 -0.011976655 0.07372758 0.18594688 -0.12553932 0.0044547743 -0.008708203 0.12127238
-0.13864595 -0.18681423 -0.20424174 -0.06650556 0.12024264 0.16203927 -0.16676909 -0.011966124
-0.071225494 0.097390205 -0.053434033 0.30847174 0.075402886 -0.41862875 0.00070940977 -0.02169276
0.19729626 -0.23155801 0.024184523 -0.0023443834 0.10652951 -0.14474915 0.015835611 -0.04219797
0.111153655 -0.09513318 0.33002543 -0.031152792 0.025029335 0.15389442 -0.18454075 -0.107579395
-0.07660542 -0.06676011 -0.20829381 0.012906081 -0.24910954 0.06224047 -0.06483455 -0.08960759
0.07289862 0.026670996 0.18103337 -0.08318398 -0.18748583 0.04745197 0.0015616814 0.16869543
0.13698217 -0.04885356 0.028030386 -0.04440377 0.25601116 -0.28057757 0.061492372 -0.025385676
-0.109782025 0.11732062 0.21965843 0.20002295 0.04399981 -0.077447854 0.090090014 -0.0051967935
-0.2742679 -0.08249896 0.16621554 0.1955984 -0.26209462 -0.09415926 0.0018837564 -0.00696003
0.075750574 -0.12521687 0.20651054 -0.044657104 0.117009394 0.014673488 -0.077142134 0.098793894
-0.17934458 -0.021848522 0.012055234 -0.14832848 0.17399715 -0.107323416 0.3374785 0.1257309
0.115156285 -0.22279246 0.11427383 -0.048407905 0.1288053 0.09565023 -0.0091909375 -0.2025171
0.10941179 -0.14489648 -0.17037307 -0.2767717 -0.1177523 -0.063604794 -0.12872095 0.08262233
-0.20355609 0.0413586 -0.035303585 0.26693445 -0.04059426 0.12352377 0.028982693 -0.18197188
-0.08804712 -0.051427063 -0.15013158 0.005858978 -0.1874822 -0.23174857 0.059949543 0.3085516
0.052178074 -0.1762619 -0.11582595 0.508152 -0.10531079 0.019385837 0.09028188 -0.0056871283
0.06170611 -0.017600639 0.020002551 -0.02004718 0.1575256 0.059311967 0.023917692 0.02015191
0.036706936 -0.14486715 0.21937257 -0.036181975 0.023979366 0.20929603 -0.0058291075 0.096330866
